1_intro/TwoLayerNet.pt (torch, 409136 bytes, 4 tensors)

0.weight f4 [128, 784]
000000 fb 79 e0 bc 0c 30 01 3c 40 6f 2f 3c cd 77 da 3c
       -0.027401915 0.00788499 0.010707676 0.026668454
000010 fd fb a9 3c d0 8e a6 bb 17 13 12 3c d3 7f 54 3c
       0.02075004 -0.0050829425 0.008915684 0.012969929
000020 6a a7 69 3c d4 11 e1 3c 64 f3 98 bc bb 0c 10 3d
       0.014261106 0.027474321 -0.018670745 0.03516839
000030 13 a6 dd 3c b7 92 01 bd 6c 1a 88 3b e1 ec 12 3d
       0.02705673 -0.03163406 0.0041535404 0.035870437
000040 09 91 cc bc 42 54 c3 bc 5b 57 98 bc f4 2e 93 bc
       -0.024971502 -0.023843888 -0.018596342 -0.017966725
000050 19 b6 8a 3b 15 1b 55 bb b6 ca cc 3c 79 13 97 bc
       0.0042331335 -0.0032517363 0.024999004 -0.018441902
000060 00 a3 26 3c e9 97 9e 3a be 3a 03 bc 0b de e9 bc
       0.010170698 0.0012099716 -0.008009611 -0.028548261
000070 0a fe af 3c f0 0e 02 bc 8e 4a bd 3b 7d 9b f7 bb
       0.02148344 -0.007938132 0.00577671 -0.0075563774
000080 0d 31 15 39 2e 34 74 3c 88 ba b3 bc e8 3a 32 3b
       0.0001422802 0.014905019 -0.021939531 0.0027195755
000090 83 43 f0 3c 2c ab 16 bc ec d6 7b bc 99 d3 9f 3c
       0.029329067 -0.009196084 -0.015371066 0.019510077
0000a0 50 25 4e bb e1 46 5d 3c 46 15 8e bc 0f 3c a8 bc
       -0.0031455345 0.013505668 -0.017344128 -0.02053645
0000b0 80 ab e0 3c 64 95 c4 3c a5 e5 99 bc 63 7f e2 39
       0.027425528 0.023997016 -0.01878626 0.0004320099
0000c0 47 13 c0 3c be ba 9e bb 97 9f dc 3c 39 99 ce bc
       0.023446692 -0.0048440387 0.026931567 -0.025219547
0000d0 59 d2 b5 bc 94 b0 ea 3c cc f8 0a bd 8a f8 91 3c
       -0.022195028 0.028648652 -0.033928677 0.017818708
0000e0 af 87 bd 3c d2 c7 b3 bc fd ac 80 3c ce 0d 7b bc
       0.023135988 -0.021945868 0.015707487 -0.0153231155
0000f0 c8 72 9f bc d3 4d 80 3c e2 d6 09 3d 34 a4 e4 3b
       -0.019463912 0.01566211 0.033652194 0.0069775824
000100 e1 a3 d4 bc a8 ad 43 bb 3e eb 80 bc b9 5a 6e 3c
       -0.02595705 -0.0029858146 -0.015737172 0.014547997
000110 61 c8 01 bc ef f6 8e 3c e4 df f9 bc 9c b5 0f 3c
       -0.007921309 0.017451731 -0.030502267 0.008771326
000120 79 65 9b 3b f4 44 6b 3c 97 67 4f bc d7 39 4f bc
       0.004742321 0.014359701 -0.012658975 -0.012648067
000130 ba 35 02 bd 1f c9 07 3d 3e 56 8c 3c eb 28 56 3c
       -0.03178952 0.03315079 0.017130967 0.013071279
000140 ce 2d 81 bc b5 97 84 bc 2f b1 c1 3c 86 90 fb 3c
       -0.015768912 -0.01618562 0.023644058 0.030708563
000150 3c 00 22 bc 80 7e 86 3c 0f d3 6a 3a be cf 89 39
       -0.009887751 0.016417742 0.0008957842 0.00026285456
000160 df e7 fa bc 34 b9 76 3b 31 bc cb bc 20 59 5e 3b
       -0.030628143 0.003764701 -0.02487001 0.0033927634
000170 76 ff 14 bd 90 36 25 3c d9 c5 ed 3c ca a9 1b bd
       -0.03637644 0.0100838095 0.029025005 -0.03800372
000180 57 69 bf 3c cd 23 c4 3b e7 9c 4d bb bb db 54 3c
       0.02336566 0.005985713 -0.0031374039 0.012991841
000190 75 32 31 bd af 77 ca bc 7d 1a b2 bc c3 00 dc 3c
       -0.04326101 -0.024715273 -0.021741146 0.026855832
0001a0 bd cf 49 bc ac 58 d1 3b de 86 a3 3b 55 66 80 3c
       -0.012317595 0.0063887443 0.0049904427 0.015673796
0001b0 0b 3d 9b 3b 80 94 1f bc 79 9b d9 3a 11 00 b6 3c
       0.0047375015 -0.009739995 0.0016602121 0.022216829
0001c0 94 4a fb bc a1 b7 5f 3c 25 71 fd 3c 96 97 33 3c
       -0.03067521 0.01365462 0.03093774 0.010961434
0001d0 01 eb c9 3c 6f 05 40 bc b3 ba a9 bc b7 67 19 bd
       0.024648191 -0.0117200455 -0.020718908 -0.037452426
0001e0 4f 68 46 bc 07 bd 05 bd 48 18 d7 bb 1e 93 c1 3c
       -0.01210983 -0.032650974 -0.006564174 0.023629721
0001f0 6b 6d cc 3b a7 2c 3f bd 3a 79 32 bd 49 19 cc bc
       0.0062386296 -0.046673443 -0.043572642 -0.0249144
000200 00 9e 77 bd bf af 7b bb 51 e3 37 bd 6e 15 0e bb
       -0.060453415 -0.0038404313 -0.04489452 -0.0021680254
000210 eb 33 e7 ba a7 98 66 bc 59 2d 73 bc a9 b6 a1 bc
       -0.0017639374 -0.014074481 -0.014842355 -0.01974042
000220 c8 b8 c4 bc 00 f0 88 3c a0 8e 81 bc 70 c7 db bc
       -0.024013892 0.016716003 -0.01581508 -0.026828498
000230 2f 0f ac 3c 2e 51 3e bb 88 ba a4 3c e6 ab 1a 3b
       0.021003334 -0.0029040086 0.020108476 0.0023600995
000240 03 13 e0 3c 64 88 ad 3c 06 6f d8 3c b3 e8 c0 3b
       0.027352815 0.0211832 0.026420128 0.005887115
000250 1e 1e 79 bb a3 7e af bc 4c 53 4c bd df a7 af 39
       -0.0038012336 -0.02142269 -0.049884126 0.00033503675
000260 7f cc 9b 3c a0 7c f9 b7 a2 ae b0 3b 1d 5b 33 bd
       0.01901841 -2.9741146e-05 0.0053919116 -0.043788064
000270 c3 f8 9d bc d7 b9 5f bc 2c 96 ac 3b 8f 34 17 bd
       -0.019283658 -0.0136551475 0.0052669253 -0.03691536
000280 21 bd 29 bd 48 4c 53 3c 93 e6 ec bc 00 03 d1 3b
       -0.041440133 0.012896605 -0.02891854 0.0063785315
000290 c0 5f fc bc 3c e6 c6 bc ac 5f 15 3b 8f 44 9d bc
       -0.030807376 -0.024279706 0.002279262 -0.01919773
0002a0 5f 9c 77 3c e6 94 85 3c d7 56 02 3d 53 4b de 3c
       0.015112965 0.016306352 0.0318211 0.027135527
0002b0 ee 26 2b 3c 14 17 fc 3b 94 5b ca bc b6 6f 32 3b
       0.010446293 0.007693181 -0.024701871 0.002722723
0002c0 b6 f9 63 bc c9 39 a0 bc b3 28 7b bc f0 73 bc 3c
       -0.013914516 -0.019558804 -0.015329528 0.023004502
0002d0 81 b1 98 bc 1b fd ec bc 67 53 97 3c e4 d9 38 bc
       -0.018639328 -0.028929284 0.018472387 -0.011282418
0002e0 6b 53 16 3d cb 3e 5d bc 77 4f 3b 3c 24 dd fe ba
       0.036700647 -0.013503741 0.01143252 -0.0019444567
0002f0 43 43 c7 bc e8 a8 03 bd 41 55 b9 3b 71 57 33 3c
       -0.024324065 -0.032143503 0.005655915 0.010946141
000300 ea 60 c4 3c 90 9a a9 3c 7a 78 d5 3c a6 ae 3c bc
       0.023971993 0.020703584 0.026058424 -0.011516249
000310 3c d9 09 bd ea 65 92 3c f1 cc 7f 3b 1a 08 fa 3b
       -0.033654436 0.017870862 0.0039032067 0.0076303603
000320 05 b3 e7 3c cb 8f 9e ba 4e 67 2b bd bd 2e 2a bc
       0.028283605 -0.0012097297 -0.041846566 -0.01038712
000330 ed c4 94 3c d5 91 87 3b 62 21 e9 38 4d 6a 58 3b
       0.018160308 0.0041372576 0.00011116524 0.0033022345
000340 bc 3e 2a 3d 51 08 3a 3d 35 da 6f 3d 1f 74 a8 3d
       0.041563734 0.045418087 0.058557708 0.08225273
000350 6c af 82 3d 66 5d 9a 3a fa dc 9a ba 9e 43 80 3c
       0.06381115 0.0011777102 -0.0011815124 0.015657242
000360 53 9f 06 3d 34 30 8a bc e0 9b 5d 3c cb 8e 56 bc
       0.032866787 -0.016868688 0.013525933 -0.013095568
000370 ef 49 72 3c ec 3a aa bc 62 d0 14 bc a6 8b 21 3c
       0.014788135 -0.02078005 -0.009082885 0.009859955
000380 df f3 cf bc a2 44 85 bc 1e 76 f9 3c 1d be c1 3c
       -0.025384841 -0.016268078 0.03045183 0.023650223
000390 6c c3 a8 bc b9 31 de bc 17 65 a0 3c 41 9b 9b 3c
       -0.020600997 -0.027123319 0.019579453 0.01899493
0003a0 d2 0f 45 bc 7c 06 97 bc c7 ad 4b bc 3a 27 a8 3c
       -0.012027698 -0.01843571 -0.0124315685 0.020526517
0003b0 ac fd ab bc d5 21 3f 3d 43 0c b2 3c 0a 41 36 bb
       -0.020994984 0.046663124 0.021734362 -0.0027809762
0003c0 d1 c4 e1 3c c7 8d 1f 3c e3 04 fe 3c c3 de ae 3c
       0.02755967 0.009738392 0.03100819 0.021346455
0003d0 ec 16 d0 3b 62 be ec 3c 97 69 a5 bc 10 c5 c3 3c
       0.0063503888 0.028899375 -0.02019195 0.023897678
0003e0 f9 50 95 3c c0 ea b3 3c 05 f7 ba bc 40 07 fc 3a
       0.018227087 0.021962523 -0.022822866 0.0019228235
0003f0 03 ba 6f bc b6 39 87 bb d1 63 d2 3c ab e2 26 3c
       -0.014631751 -0.0041267527 0.025682362 0.010185878

0.bias f4 [128]
000000 78 cf ca bb 18 5a 6a 3b 19 5e e3 3c d8 50 05 bd
       -0.006189283 0.0035759266 0.02775483 -0.0325478
000010 34 6b 8e bc 39 76 4e bc af 0d 45 bd 9c dd 83 bc
       -0.017385103 -0.012601429 -0.048108753 -0.016096883
000020 b7 98 12 3c db 6c 0f bd bf 8e 7e bc e1 4d cb 3c
       0.008947543 -0.035015922 -0.015536963 0.024817409
000030 f8 7b 27 3a 34 5a 72 3c 4a 2a ed 3c 08 f3 66 bc
       0.0006389017 0.014792014 0.028950829 -0.014096029
000040 f4 9e 98 3c ff f6 0c 3c e9 2a 13 3c 47 2f 3b 3c
       0.018630482 0.00860381 0.008982399 0.011424846
000050 45 7a 76 bb 40 13 a2 bc 6f c3 dc 3b 55 36 f2 bc
       -0.00376095 -0.01978457 0.0067371647 -0.029566923
000060 1b bc c7 bc a2 f7 1b bc a0 34 2d bb d5 2e af bc
       -0.024381688 -0.0095194895 -0.0026429072 -0.021384636
000070 0e cf ce bc a4 fa 9e 3c 84 8b 8f 3c fb 70 e3 3c
       -0.025245216 0.019406624 0.01752258 0.027763834
000080 ce cd 04 bd 27 eb a0 3c 9a bb 95 bb 55 d9 61 bc
       -0.032422833 0.01964338 -0.004569483 -0.013784726
000090 d5 d5 db 3b af a2 b6 3c b7 da 4f bc 3e b5 a5 bb
       0.0067088404 0.02229437 -0.012686423 -0.005057006
0000a0 6c ee 58 bc c7 6a f1 bc 9e 80 94 3c db 0d c1 bb
       -0.013240438 -0.02946986 0.018127736 -0.0058915443
0000b0 34 81 0d 3b 7a a2 fe bc 7a 40 b0 3c 7f 9b 0b bd
       0.0021591904 -0.031083334 0.02151512 -0.03408384
0000c0 3f 6f 22 bc 46 a5 13 3d cc 3e d8 3b 1e 20 b6 3b
       -0.009914218 0.03604629 0.006599283 0.005558028
0000d0 65 92 aa bb e2 67 c1 bc 03 e9 9a bc a4 53 45 3b
       -0.00520544 -0.023609105 -0.018909937 0.0030109668
0000e0 2e f7 df bb ac 22 49 ba 03 05 24 bd f3 c6 19 bc
       -0.006834886 -0.0007672708 -0.040043842 -0.009385812
0000f0 57 31 1a bb e3 63 9a 3c 68 5f aa bc 8d cb 50 3b
       -0.0023527944 0.018846458 -0.020797446 0.0031859607
000100 59 94 00 bd 25 7e ba bc 9b f9 7d 3c f7 da 0e 3d
       -0.031391475 -0.022765229 0.015501405 0.03487679
000110 6d 7e fe 3c cf 6a a9 bc 7a 40 eb bc e8 41 f5 bc
       0.031066144 -0.020680813 -0.028717268 -0.029938653
000120 5a 90 64 3c 13 af 64 3b d9 dd 00 3d 56 26 fa bc
       0.013950432 0.0034894391 0.03146157 -0.030535858
000130 2e 28 00 bc 6f 4a ee bc 66 d8 0d 3d 8b 2d 57 b9
       -0.00782208 -0.029088227 0.0346302 -0.00020520964
000140 9e b4 82 3c 6a a2 d0 bc 50 65 fa 3c 70 48 e2 3c
       0.015955266 -0.02546807 0.030565888 0.027622432
000150 7b d3 b1 3c fb 04 05 3c e7 16 e9 3c df b4 09 bd
       0.021707287 0.008118863 0.028453304 -0.033619758
000160 6b 23 05 3c 62 d0 15 bc 66 2e a9 3c bf e1 78 ba
       0.00812612 -0.009143921 0.020652007 -0.0009494088
000170 cb 4a c5 3c 19 b5 87 bc b2 71 d8 3c 96 9d c0 3c
       0.024083516 -0.016565846 0.026421402 0.023512643
000180 19 23 35 bd ff 0a 32 bc 73 2b e4 bc 14 1a 16 3c
       -0.044222925 -0.0108668795 -0.02785275 0.009161491
000190 bc d7 28 3b 0d 79 95 3b 6c fb 00 3c 48 49 17 3c
       0.0025763353 0.0045615495 0.007872444 0.00923378
0001a0 35 86 56 3c 8c 03 1e 3b 1a 90 da 3c 93 02 c0 bc
       0.013093521 0.0024111 0.026680041 -0.023438727
0001b0 3c 19 11 bc 5f 9d 07 3d 85 ce be 3c ef 28 8f bc
       -0.008856114 0.033109065 0.023291836 -0.017475573
0001c0 54 dc b8 3c ce e7 cb 3c 2d 49 03 b9 0a 9a ee bc
       0.022565998 0.024890807 -0.00012520394 -0.029126186
0001d0 e4 36 e9 bc 52 86 08 bd 2f 3e 20 3c d1 d9 cb bc
       -0.028468557 -0.033331223 0.009780451 -0.024884136
0001e0 68 43 f2 3c ef 2a 33 3c 88 1b df 3c 5f 49 ac bc
       0.029573157 0.010935529 0.027234808 -0.02103108
0001f0 26 9e 52 3c 5d 82 e5 3c a1 34 16 3c 09 a0 19 3c
       0.012855088 0.028016264 0.009167821 0.009376534

2.weight f4 [10, 128]
000000 04 88 57 be f1 a3 5a bd c0 bd 1e 3d 2e 5e 12 3d
       -0.2104798 -0.053379003 0.03875518 0.035734348
000010 bd 32 14 bd 8a b3 d5 bd a7 a2 f0 bd 1e 79 07 3e
       -0.0361812 -0.10434635 -0.117497735 0.13229796
000020 2d 97 27 bd fe 19 40 bd c1 ad 24 be 0c 10 25 3d
       -0.040915657 -0.046899788 -0.16081907 0.040298507
000030 78 e2 4d be 29 19 50 be 2e 4e 55 3e cc 74 f2 bd
       -0.20105922 -0.20322098 0.20830604 -0.118386835
000040 6e c9 40 3d b9 58 40 bd 00 6f 55 3e 9b c7 02 ba
       0.0470671 -0.046959613 0.20843124 -0.000498885
000050 0c 72 63 3d aa 37 8a be cd ca 8e bc 4a 5a 12 bc
       0.055528685 -0.26995593 -0.017430687 -0.008932659
000060 6a 0f b0 bd f3 37 fa bd e9 a3 b1 3e 5f cd 2e 3e
       -0.0859669 -0.12217703 0.34695366 0.1707053
000070 36 6e ca bb d5 b1 c2 3c 99 40 10 3c f5 af 79 bc
       -0.006177689 0.023766438 0.008804464 -0.015239705
000080 47 1f ba 3a 12 38 8b be 0a 71 6a bd b2 37 60 3d
       0.0014199995 -0.27191216 -0.05723671 0.054740615
000090 33 cb 16 3d 95 c9 a7 bd 03 33 00 3e 48 dc 5b 3e
       0.03681488 -0.081927456 0.1251946 0.2147075
0000a0 99 74 9b bd 3d 94 b0 bd 98 16 8f 3e b3 34 c7 3d
       -0.075905986 -0.08622024 0.27946925 0.097268485
0000b0 c2 14 b7 3e b1 c6 e0 bd a4 d7 61 be be 7c 79 be
       0.35758024 -0.109753974 -0.22054917 -0.24363992
0000c0 5d 9c 9b 3e 28 5a db 3d 9c 1b 5b 3e 51 25 a7 3e
       0.30392733 0.10710555 0.21397251 0.32645658
0000d0 09 ec e1 bd c6 64 a0 be 25 88 8d 3d 67 8d 3c be
       -0.11031348 -0.31326884 0.06910733 -0.18413316
0000e0 b6 a8 8a be 71 bf 14 be 71 b5 99 bd 80 5c 31 bc
       -0.2708184 -0.14526154 -0.0750531 -0.010825276
0000f0 85 66 9d bd 23 5e df bd 37 16 d3 3c 3c ee ed bd
       -0.0768557 -0.10906627 0.025767429 -0.11617705
000100 0c 06 e9 bb 62 bf 8c 3e 93 29 55 bd 27 46 77 3e
       -0.0071113165 0.27489763 -0.0520416 0.24147855
000110 ed 49 22 be f9 d6 4f 3d 1d 85 0b be 40 47 77 3c
       -0.15848513 0.050742123 -0.13624997 0.015092671
000120 d8 2d 13 3d 27 ed f9 3d e4 ab 92 bd 5a 52 6c bd
       0.035932392 0.12203436 -0.07161692 -0.057695724
000130 ab 58 a2 3c 62 d8 a3 3d 8e f8 4b 3e 42 1d a3 3e
       0.01981767 0.08000256 0.19919035 0.3185826
000140 a6 3a 2f be a1 e1 58 be c8 14 58 3e e8 b4 a4 be
       -0.17112216 -0.2117982 0.21101677 -0.3216927
000150 8a c5 86 3d d2 fa 39 bd 85 80 a3 bd 1c 07 3a bd
       0.06580646 -0.045405217 -0.079834975 -0.045416936
000160 54 48 f5 bd 2d 0b 5d 3c 0c 20 80 be f7 40 69 be
       -0.11976686 0.013491434 -0.2502445 -0.22778688
000170 94 01 37 be 26 95 a5 3c 91 53 44 3e f3 eb a4 bd
       -0.17871696 0.020212721 0.19172503 -0.08052816
000180 6b a1 22 3e 1d f9 eb 3c 7e 7b 81 3e 3b a0 36 be
       0.15881889 0.02880531 0.2528953 -0.1783456
000190 7d 2c aa 3d 0a f4 78 bd ea 7e f7 3d 9b 97 39 3a
       0.08309267 -0.06077961 0.12084754 0.0007079781
0001a0 3e 98 4e bd 09 34 1a 3b 2e 91 a3 bd a5 1c e6 bd
       -0.05043816 0.002352955 -0.07986675 -0.11235932
0001b0 0b b9 a1 3d 7c 8c bb bc d8 22 58 bd e8 bc 8d bd
       0.07896622 -0.022894137 -0.052767605 -0.06920797
0001c0 50 47 3b be e5 19 1b 3e e9 82 ee bc ed 14 2d bd
       -0.18288922 0.15146597 -0.029115157 -0.042256285
0001d0 f3 47 08 3e b0 66 ae bd 2b 4d 63 3d 03 d2 90 3e
       0.13308696 -0.0851568 0.055493515 0.28285226
0001e0 f0 e5 74 3c ce ff 84 bd fc 4f 51 3e 7a dc fe bd
       0.0149473995 -0.06494103 0.20440668 -0.12444396
0001f0 56 a7 dc bc 3e e8 43 be 05 ff 28 bd 8b eb 84 bc
       -0.02693526 -0.19131562 -0.04125883 -0.016225597
000200 1e 3b db bd b9 de 19 be de 55 3b 3d 53 4c 2d 3e
       -0.10704635 -0.15026368 0.045736186 0.16923647
000210 79 93 2e 3d b9 5e d4 bd 43 cc b2 3d 47 8f 28 be
       0.04262111 -0.103696294 0.08730366 -0.16460906
000220 e8 c1 f1 3d 83 41 6a bc 74 7b 47 3e d8 e1 25 bc
       0.11804563 -0.014297846 0.19480687 -0.010124646
000230 3b dc 52 bd 71 29 00 3e 43 5c 7e be cc bf 0d 3e
       -0.05147956 0.12515809 -0.24839883 0.13842696
000240 db 87 0f be 5e f6 c0 3c 59 2b 25 3d 90 06 48 be
       -0.14016668 0.023554977 0.040324543 -0.19533753
000250 a5 ce 14 be fd 8a a2 3e 30 8f 54 3e 50 a4 7d 3b
       -0.14531954 0.31746665 0.20757747 0.0038702674
000260 17 02 9c 3d 15 83 fa 3c 4b 0a 05 3c e5 48 12 bc
       0.07617586 0.030580083 0.00812013 -0.008928512
000270 4d 55 af bc 31 30 0c 3d 7a ba 15 3d 34 e8 15 3e
       -0.02140298 0.034225646 0.03655479 0.1463936
000280 8c fb 08 be 34 e1 fe bd f5 5b a2 bd be 37 9a bc
       -0.13377208 -0.12445298 -0.07927696 -0.018825408
000290 93 43 dc 3d d2 22 44 3d b0 be ad bd 8e 60 bd bd
       0.10755076 0.04788477 -0.084836364 -0.09246932
0002a0 67 c5 94 be 92 88 94 be 24 69 10 be 6f 7d 8f bd
       -0.29056856 -0.29010445 -0.14102608 -0.070063464
0002b0 d0 77 ad bd 5d ff 0c bd c7 8a 88 bd f0 7a 41 3e
       -0.08470118 -0.03442322 -0.06667095 0.18894553
0002c0 2a de 7f 3b e5 77 83 bd 3f 11 d4 be 14 55 7a be
       0.0039042332 -0.064193524 -0.41419408 -0.24446517
0002d0 09 46 31 3e 83 b3 10 3e ab b6 99 bd 70 ad 92 be
       0.17311873 0.14130978 -0.07505544 -0.28647947
0002e0 9c 0d 6c 3e 96 c0 b1 3d 06 78 1a 3e 8f 65 10 bd
       0.23052067 0.08679311 0.15084848 -0.035253104
0002f0 b7 5e 80 bd c3 ab 0e bd 3f 46 90 3d ad ca c2 bd
       -0.062680654 -0.034831773 0.070446484 -0.095113136
000300 3a 27 54 be 83 08 bd 3d 23 b0 70 bd a4 c5 62 bd
       -0.20718089 0.09230139 -0.058761727 -0.055364266
000310 1b 98 ae 3e 56 e2 cb bc 29 de 0e 3d 90 c0 f9 3d
       0.34100422 -0.024888199 0.034879837 0.121949315
000320 bd f2 62 3e 52 8e 41 3d 18 0d 53 3d 96 ea 57 3d
       0.2216291 0.047254868 0.05152616 0.052713953
000330 39 cd 3d 3d ed f4 9a 3e f2 cd 5d be 3f cf 4c 3e
       0.046338294 0.3026499 -0.21660593 0.20000933
000340 63 77 84 3d 28 a0 22 3e 7c c1 ef 3d d1 9d e5 bc
       0.06468084 0.15881407 0.11706826 -0.028029354
000350 d8 d2 18 3d 23 79 00 3d 9a 94 8b 3e a3 c1 94 bc
       0.03731045 0.031365525 0.27261811 -0.01815874
000360 f2 7b 50 3e 36 44 76 3d 83 63 d4 bd fb 90 04 3e
       0.20359781 0.060123645 -0.10370543 0.1294593
000370 65 27 33 3e 08 09 89 bc 22 a5 82 be ab f0 37 bd
       0.17495497 -0.01672794 -0.2551661 -0.044907253
000380 e9 70 44 3d ae fa ad 3d e6 2e 92 3e 69 cb 38 be
       0.047959242 0.08495079 0.28551406 -0.18046345
000390 83 46 ed bd 7e 16 2e 3d a2 4c 53 3e f2 e9 5d bd
       -0.11585715 0.04250192 0.20634702 -0.054178186
0003a0 95 e7 e1 bd 1f c4 7e be 86 23 e5 bd 23 2e ac be
       -0.11030499 -0.24879502 -0.11188416 -0.3362895
0003b0 84 91 8b be ed 81 99 3b 00 9a 37 3d 59 15 9c bd
       -0.27259457 0.004684678 0.0448246 -0.07621259
0003c0 59 b3 24 3d e9 6c 91 be fc db 50 3d c9 27 a4 bd
       0.0402101 -0.28403404 0.050991043 -0.08015401
0003d0 40 4e 70 be d9 a6 33 3e e6 84 8c bd fd 65 3b be
       -0.2346735 0.17544116 -0.06861286 -0.18300624
0003e0 8d e2 0e 3c 7d 92 ae 3c 3d 40 48 3d eb 5d bb 3d
       0.008721006 0.021310085 0.048889387 0.09148773
0003f0 46 4a 55 bc ee e0 b6 3e 50 ea 99 3e 65 2d 95 3e
       -0.013018196 0.35718483 0.3006158 0.29136196

2.bias f4 [10]
000000 e6 ae d3 bb 89 8e 65 3d c0 c4 bd bd a9 4e 8c bd
       -0.0064600585 0.056044135 -0.09266043 -0.06850941
000010 a3 7c ff bc 83 c8 24 bd 58 c5 10 3d 38 10 01 3d
       -0.031187361 -0.040230285 0.03534445 0.031509608
000020 16 26 04 3e 36 a0 97 3d
       0.12905154 0.07403605
